…
        "urban_fraction": 0.9985207100591716,
        "urban_area_km2": 1078.8708938894852,
        "total_area_km2": 1080.4692211396919,
        "n_observations": 1,
        "selected_source": "S2",
        "available_sources": [
          "S2"
        ]
      },
      "2023": {
        "urban_fraction": 1.0,
        "urban_area_km2": 1080.4692211396919,
        "total_area_km2": 1080.4692211396919,
        "n_observations": 2,
        "selected_source": "LS",
        "available_sources": [
          "LS",
          "S2"
        ]
      }
    }
  },
  "prediction": [
    "UrbanExpansionPredictor(\n  (input_proj): Sequential(\n    (0): Linear(in_features=17, out_features=64, bias=True)\n    (1): LayerNorm((64,), eps=1e-05, elementwise_affine=True)\n    (2): ReLU(inplace=True)\n    (3): Dropout(p=0.15, inplace=False)\n  )\n  (lstm): LSTM(64, 64, batch_first=True, bidirectional=True)\n  (bidir_proj): Linear(in_features=128, out_features=64, bias=True)\n  (attention): TemporalAttention(\n    (attn_layers): ModuleList(\n      (0-1): 2 x Sequential(\n        (0): Linear(in_features=64, out_features=32, bias=True)\n        (1): Tanh()\n        (2): Linear(in_features=32, out_features=1, bias=True)\n      )\n    )\n    (combine): Linear(in_features=128, out_features=64, bias=True)\n  )\n  (layer_norm): LayerNorm((64,), eps=1e-05, elementwise_affine=True)\n  (area_head): Sequential(\n    (0): Linear(in_features=64, out_features=32, bias=True)\n    (1): ReLU(inplace=True)\n    (2): Dropout(p=0.15, inplace=False)\n    (3): Linear(in_features=32, out_features=1, bias=True)\n  )\n  (growth_head): Sequential(\n    (0): Linear(in_features=64, out_features=32, bias=True)\n    (1): ReLU(inplace=True)\n    (2): Dropout(p=0.15, inplace=False)\n    (3): Linear(in_features=32, out_features=1, bias=True)\n  )\n  (uncertainty_head): Sequential(\n    (0): Linear(in_features=64, out_features=16, bias=True)\n    (1): ReLU(inplace=True)\n    (2): Linear(in_features=16, out_features=1, bias=True)\n  )\n)",
    {
      "train_loss": [
        … "val_loss": [
        … "val_mae": [
        "518.1442",
        "397.45273",
        "292.73184",
        "199.46115",
        "217.58398",
        "228.48544",
        "221.53029",
        "221.79839",
        "215.73099",
        "227.59245",
        "232.22205",
        "220.37971",
        "243.197",
        "234.61858",
…
          1400.457998955654,
          1423.3815327545751,
          1400.878521372998
        ],
        "area_2035": 1189.4984998849957,
        "ci_lower_2035": 978.1184783969934,
        "ci_upper_2035": 1400.878521372998,
        "growth_pct": -15.23249965805583,
        "current_area": "1403.2483"
      }
    },
    {
      "mae": "330.3471",
      "rmse": "446.60474",
      "r2": "0.5590216",
      "mape": "20.33643"
    }
  ],
  "alerts": {
    "model": "RealTimeChangeDetector(\n  (encoder): UrbanClassifier(\n    (blocks): ModuleList(\n      (0): Sequential(\n        (0): Conv2dNormActivation(\n          (0): Conv2d(6, 32, kernel_size=(3, 3), stride=(2, 2), padding=(1, 1), bias=False)\n          (1): BatchNorm2d(32, eps=1e-05, momentum=0.1, affine=True, track_running_stats=True)\n          (2): SiLU(inplace=True)\n        )\n        (1): Sequential(\n          (0): MBConv(\n            (block): Sequential(\n              (0): Conv2dNormActivation(\n                (0): Conv2d(32, 32, kernel_size=(3, 3), stride=(1, 1), padding=(1, 1), groups=32, bias=False)\n                (1): BatchNorm2d(32, eps=1e-05, momentum=0.1, affine=True, track_running_stats=True)\n                (2): SiLU(inplace=True)\n              )\n              (1): SqueezeExcitation(\n                (avgpool): AdaptiveAvgPool2d(output_size=1)\n                (fc1): Conv2d(32, 8, kernel_size=(1, 1), stride=(1, 1))\n                (fc2): Conv2d(8, 32, kernel_size=(1, 1), stride=(1, 1))\n                (activation): SiLU(inplace=True)\n                (scale_activation): Sigmoid()\n              )\n              (2): Conv2dNormActivation(\n                (0): Conv2d(32, 16, kernel_size=(1, 1), stride=(1, 1), bias=False)\n                (1): BatchNorm2d(16, eps=1e-05, momentum=0.1, affine=True, track_running_stats=True)\n              )\n            )\n            (stochastic_depth): StochasticDepth(p=0.0, mode=row)\n          )\n        )\n        (2): Sequential(\n          (0): MBConv(\n            (block): Sequential(\n              (0): Conv2dNormActivation(\n                (0): Conv2d(16, 96, kernel_size=(1, 1), stride=(1, 1), bias=False)\n                (1): BatchNorm2d(96, eps=1e-05, momentum=0.1, affine=True, track_running_stats=True)\n                (2): SiLU(inplace=True)\n              )\n              (1): Conv2dNormActivation(\n                (0): Conv2d(96, 96, kernel_size=(3, 3), stride=(2, 2), padding=(1, 1), groups=96, bias=False)\n                (1): BatchNorm2d(96, eps=1e-05, momentum=0.1, affine=True, track_running_stats=True)\n                (2): SiLU(inplace=True)\n              )\n              (2): SqueezeExcitation(\n                (avgpool): AdaptiveAvgPool2d(output_size=1)\n                (fc1): Conv2d(96, 4, kernel_size=(1, 1), stride=(1, 1))\n                (fc2): Conv2d(4, 96, kernel_size=(1, 1), stride=(1, 1))\n                (activation): SiLU(inplace=True)\n                (scale_activation): Sigmoid()\n              )\n              (3): Conv2dNormActivation(\n                (0): Conv2d(96, 24, kernel_size=(1, 1), stride=(1, 1), bias=False)\n                (1): BatchNorm2d(24, eps=1e-05, momentum=0.1, affine=True, track_running_stats=True)\n              )\n            )\n            (stochastic_depth): StochasticDepth(p=0.0125, mode=row)\n          )\n          (1): MBConv(\n            (block): Sequential(\n              (0): Conv2dNormActivation(\n                (0): Conv2d(24, 144, kernel_size=(1, 1), stride=(1, 1), bias=False)\n                (1): BatchNorm2d(144, eps=1e-05, momentum=0.1, affine=True, track_running_stats=True)\n                (2): SiLU(inplace=True)\n              )\n              (1): Conv2dNormActivation(\n                (0): Conv2d(144, 144, kernel_size=(3, 3), stride=(1, 1), padding=(1, 1), groups=144, bias=False)\n                (1): BatchNorm2d(144, eps=1e-05, momentum=0.1, affine=True, track_running_stats=True)\n                (2): SiLU(inplace=True)\n              )\n              (2): SqueezeExcitation(\n                (avgpool): AdaptiveAvgPool2d(output_size=1)\n                (fc1): Conv2d(144, 6, kernel_size=(1, 1), stride=(1, 1))\n                (fc2): Conv2d(6, 144, kernel_size=(1, 1), stride=(1, 1))\n                (activation): SiLU(inplace=True)\n                (scale_activation): Sigmoid()\n              )\n              (3): Conv2dNormActivation(\n                (0): Conv2d(144, 24, kernel_size=(1, 1), stride=(1, 1), bias=False)\n                (1): BatchNorm2d(24, eps=1e-05, momentum=0.1, affine=True, track_running_stats=True)\n              )\n            )\n            (stochastic_depth): StochasticDepth(p=0.025, mode=row)\n          )\n        )\n      )\n      (1): Sequential(\n        (0): Sequential(\n          (0): MBConv(\n            (block): Sequential(\n              (0): Conv2dNormActivation(\n                (0): Conv2d(24, 144, kernel_size=(1, 1), stride=(1, 1), bias=False)\n                (1): BatchNorm2d(144, eps=1e-05, momentum=0.1, affine=True, track_running_stats=True)\n                (2): SiLU(inplace=True)\n              )\n              (1): Conv2dNormActivation(\n                (0): Conv2d(144, 144, kernel_size=(5, 5), stride=(2, 2), padding=(2, 2), groups=144, bias=False)\n                (1): BatchNorm2d(144, eps=1e-05, momentum=0.1, affine=True, track_running_stats=True)\n                (2): SiLU(inplace=True)\n              )\n              (2): SqueezeExcitation(\n                (avgpool): AdaptiveAvgPool2d(output_size=1)\n                (fc1): Conv2d(144, 6, kernel_size=(1, 1), stride=(1, 1))\n                (fc2): Conv2d(6, 144, kernel_size=(1, 1), stride=(1, 1))\n                (activation): SiLU(inplace=True)\n                (scale_activation): Sigmoid()\n              )\n              (3): Conv2dNormActivation(\n                (0): Conv2d(144, 40, kernel_size=(1, 1), stride=(1, 1), bias=False)\n                (1): BatchNorm2d(40, eps=1e-05, momentum=0.1, affine=True, track_running_stats=True)\n              )\n            )\n            (stochastic_depth): StochasticDepth(p=0.037500000000000006, mode=row)\n          )\n          (1): MBConv(\n            (block): Sequential(\n              (0): Conv2dNormActivation(\n                (0): Conv2d(40, 240, kernel_size=(1, 1), stride=(1, 1), bias=False)\n                (1): BatchNorm2d(240, eps=1e-05, momentum=0.1, affine=True, track_running_stats=True)\n                (2): SiLU(inplace=True)\n              )\n              (1): Conv2dNormActivation(\n                (0): Conv2d(240, 240, kernel_size=(5, 5), stride=(1, 1), padding=(2, 2), groups=240, bias=False)\n                (1): BatchNorm2d(240, eps=1e-05, momentum=0.1, affine=True, track_running_stats=True)\n                (2): SiLU(inplace=True)\n              )\n              (2): SqueezeExcitation(\n                (avgpool): AdaptiveAvgPool2d(output_size=1)\n                (fc1): Conv2d(240, 10, kernel_size=(1, 1), stride=(1, 1))\n                (fc2): Conv2d(10, 240, kernel_size=(1, 1), stride=(1, 1))\n                (activation): SiLU(inplace=True)\n                (scale_activation): Sigmoid()\n              )\n              (3): Conv2dNormActivation(\n                (0): Conv2d(240, 40, kernel_size=(1, 1), stride=(1, 1), bias=False)\n                (1): BatchNorm2d(40, eps=1e-05, momentum=0.1, affine=True, track_running_stats=True)\n              )\n            )\n            (stochastic_depth): StochasticDepth(p=0.05, mode=row)\n          )\n        )\n        (1): Sequential(\n          (0): MBConv(\n            (block): Sequential(\n              (0): Conv2dNormActivation(\n                (0): Conv2d(40, 240, kernel_size=(1, 1), stride=(1, 1), bias=False)\n                (1): BatchNorm2d(240, eps=1e-05, momentum=0.1, affine=True, track_running_stats=True)\n                (2): SiLU(inplace=True)\n              )\n              (1): Conv2dNormActivation(\n                (0): Conv2d(240, 240, kernel_size=(3, 3), stride=(2, 2), padding=(1, 1), groups=240, bias=False)\n                (1): BatchNorm2d(240, eps=1e-05, momentum=0.1, affine=True, track_running_stats=True)\n                (2): SiLU(inplace=True)\n              )\n              (2): SqueezeExcitation(\n                (avgpool): AdaptiveAvgPool2d(output_size=1)\n                (fc1): Conv2d(240, 10, kernel_size=(1, 1), stride=(1, 1))\n                (fc2): Conv2d(10, 240, kernel_size=(1, 1), stride=(1, 1))\n                (activation): SiLU(inplace=True)\n                (scale_activation): Sigmoid()\n              )\n              (3): Conv2dNormActivation(\n                (0): Conv2d(240, 80, kernel_size=(1, 1), stride=(1, 1), bias=False)\n                (1): BatchNorm2d(80, eps=1e-05, momentum=0.1, affine=True, track_running_stats=True)\n              )\n            )\n            (stochastic_depth): StochasticDepth(p=0.0625, mode=row)\n          )\n          (1): MBConv(\n            (block): Sequential(\n              (0): Conv2dNormActivation(\n                (0): Conv2d(80, 480, kernel_size=(1, 1), stride=(1, 1), bias=False)\n                (1): BatchNorm2d(480, eps=1e-05, momentum=0.1, affine=True, track_running_stats=True)\n                (2): SiLU(inplace=True)\n              )\n              (1): Conv2dNormActivation(\n                (0): Conv2d(480, 480, kernel_size=(3, 3), stride=(1, 1), padding=(1, 1), groups=480, bias=False)\n                (1): BatchNorm2d(480, eps=1e-05, momentum=0.1, affine=True, track_running_stats=True)\n                (2): SiLU(inplace=True)\n              )\n              (2): SqueezeExcitation(\n                (avgpool): AdaptiveAvgPool2d(output_size=1)\n                (fc1): Conv2d(480, 20, kernel_size=(1, 1), stride=(1, 1))\n                (fc2): Conv2d(20, 480, kernel_size=(1, 1), stride=(1, 1))\n                (activation): SiLU(inplace=True)\n                (scale_activation): Sigmoid()\n              )\n              (3): Conv2dNormActivation(\n                (0): Conv2d(480, 80, kernel_size=(1, 1), stride=(1, 1), bias=False)\n                (1): BatchNorm2d(80, eps=1e-05, momentum=0.1, affine=True, track_running_stats=True)\n              )\n            )\n            (stochastic_depth): StochasticDepth(p=0.07500000000000001, mode=row)\n          )\n          (2): MBConv(\n            (block): Sequential(\n              (0): Conv2dNormActivation(\n                (0): Conv2d(80, 480, kernel_size=(1, 1), stride=(1, 1), bias=False)\n                (1): BatchNorm2d(480, eps=1e-05, momentum=0.1, affine=True, track_running_stats=True)\n                (2): SiLU(inplace=True)\n              )\n              (1): Conv2dNormActivation(\n                (0): Conv2d(480, 480, kernel_size=(3, 3), stride=(1, 1), padding=(1, 1), groups=480, bias=False)\n                (1): BatchNorm2d(480, eps=1e-05, momentum=0.1, affine=True, track_running_stats=True)\n                (2): SiLU(inplace=True)\n              )\n              (2): SqueezeExcitation(\n                (avgpool): AdaptiveAvgPool2d(output_size=1)\n                (fc1): Conv2d(480, 20, kernel_size=(1, 1), stride=(1, 1))\n                (fc2): Conv2d(20, 480, kernel_size=(1, 1), stride=(1, 1))\n                (activation): SiLU(inplace=True)\n                (scale_activation): Sigmoid()\n              )\n              (3): Conv2dNormActivation(\n                (0): Conv2d(480, 80, kernel_size=(1, 1), stride=(1, 1), bias=False)\n                (1): BatchNorm2d(80, eps=1e-05, momentum=0.1, affine=True, track_running_stats=True)\n              )\n            )\n            (stochastic_depth): StochasticDepth(p=0.08750000000000001, mode=row)\n          )\n        )\n      )\n      (2): Sequential(\n        (0): Sequential(\n          (0): MBConv(\n            (block): Sequential(\n              (0): Conv2dNormActivation(\n                (0): Conv2d(80, 480, kernel_size=(1, 1), stride=(1, 1), bias=False)\n                (1): BatchNorm2d(480, eps=1e-05, momentum=0.1, affine=True, track_running_stats=True)\n                (2): SiLU(inplace=True)\n              )\n              (1): Conv2dNormActivation(\n                (0): Conv2d(480, 480, kernel_size=(5, 5), stride=(1, 1), padding=(2, 2), groups=480, bias=False)\n                (1): BatchNorm2d(480, eps=1e-05, momentum=0.1, affine=True, track_running_stats=True)\n                (2): SiLU(inplace=True)\n              )\n              (2): SqueezeExcitation(\n                (avgpool): AdaptiveAvgPool2d(output_size=1)\n                (fc1): Conv2d(480, 20, kernel_size=(1, 1), stride=(1, 1))\n                (fc2): Conv2d(20, 480, kernel_size=(1, 1), stride=(1, 1))\n                (activation): SiLU(inplace=True)\n                (scale_activation): Sigmoid()\n              )\n              (3): Conv2dNormActivation(\n                (0): Conv2d(480, 112, kernel_size=(1, 1), stride=(1, 1), bias=False)\n                (1): BatchNorm2d(112, eps=1e-05, momentum=0.1, affine=True, track_running_stats=True)\n              )\n            )\n            (stochastic_depth): StochasticDepth(p=0.1, mode=row)\n          )\n          (1): MBConv(\n            (block): Sequential(\n              (0): Conv2dNormActivation(\n                (0): Conv2d(112, 672, kernel_size=(1, 1), stride=(1, 1), bias=False)\n                (1): BatchNorm2d(672, eps=1e-05, momentum=0.1, affine=True, track_running_stats=True)\n                (2): SiLU(inplace=True)\n              )\n              (1): Conv2dNormActivation(\n                (0): Conv2d(672, 672, kernel_size=(5, 5), stride=(1, 1), padding=(2, 2), groups=672, bias=False)\n                (1): BatchNorm2d(672, eps=1e-05, momentum=0.1, affine=True, track_running_stats=True)\n                (2): SiLU(inplace=True)\n              )\n              (2): SqueezeExcitation(\n                (avgpool): AdaptiveAvgPool2d(output_size=1)\n                (fc1): Conv2d(672, 28, kernel_size=(1, 1), stride=(1, 1))\n                (fc2): Conv2d(28, 672, kernel_size=(1, 1), stride=(1, 1))\n                (activation): SiLU(inplace=True)\n                (scale_activation): Sigmoid()\n              )\n              (3): Conv2dNormActivation(\n                (0): Conv2d(672, 112, kernel_size=(1, 1), stride=(1, 1), bias=False)\n                (1): BatchNorm2d(112, eps=1e-05, momentum=0.1, affine=True, track_running_stats=True)\n              )\n            )\n            (stochastic_depth): StochasticDepth(p=0.1125, mode=row)\n          )\n          (2): MBConv(\n            (block): Sequential(\n              (0): Conv2dNormActivation(\n                (0): Conv2d(112, 672, kernel_size=(1, 1), stride=(1, 1), bias=False)\n                (1): BatchNorm2d(672, eps=1e-05, momentum=0.1, affine=True, track_running_stats=True)\n                (2): SiLU(inplace=True)\n              )\n              (1): Conv2dNormActivation(\n                (0): Conv2d(672, 672, kernel_size=(5, 5), stride=(1, 1), padding=(2, 2), groups=672, bias=False)\n                (1): BatchNorm2d(672, eps=1e-05, momentum=0.1, affine=True, track_running_stats=True)\n                (2): SiLU(inplace=True)\n              )\n              (2): SqueezeExcitation(\n                (avgpool): AdaptiveAvgPool2d(output_size=1)\n                (fc1): Conv2d(672, 28, kernel_size=(1, 1), stride=(1, 1))\n                (fc2): Conv2d(28, 672, kernel_size=(1, 1), stride=(1, 1))\n                (activation): SiLU(inplace=True)\n                (scale_activation): Sigmoid()\n              )\n              (3): Conv2dNormActivation(\n                (0): Conv2d(672, 112, kernel_size=(1, 1), stride=(1, 1), bias=False)\n                (1): BatchNorm2d(112, eps=1e-05, momentum=0.1, affine=True, track_running_stats=True)\n              )\n            )\n            (stochastic_depth): StochasticDepth(p=0.125, mode=row)\n          )\n        )\n        (1): Sequential(\n          (0): MBConv(\n            (block): Sequential(\n              (0): Conv2dNormActivation(\n                (0): Conv2d(112, 672, kernel_size=(1, 1), stride=(1, 1), bias=False)\n                (1): BatchNorm2d(672, eps=1e-05, momentum=0.1, affine=True, track_running_stats=True)\n                (2): SiLU(inplace=True)\n              )\n              (1): Conv2dNormActivation(\n                (0): Conv2d(672, 672, kernel_size=(5, 5), stride=(2, 2), padding=(2, 2), groups=672, bias=False)\n                (1): BatchNorm2d(672, eps=1e-05, momentum=0.1, affine=True, track_running_stats=True)\n                (2): SiLU(inplace=True)\n              )\n              (2): SqueezeExcitation(\n                (avgpool): AdaptiveAvgPool2d(output_size=1)\n                (fc1): Conv2d(672, 28, kernel_size=(1, 1), stride=(1, 1))\n                (fc2): Conv2d(28, 672, kernel_size=(1, 1), stride=(1, 1))\n                (activation): SiLU(inplace=True)\n                (scale_activation): Sigmoid()\n              )\n              (3): Conv2dNormActivation(\n                (0): Conv2d(672, 192, kernel_size=(1, 1), stride=(1, 1), bias=False)\n                (1): BatchNorm2d(192, eps=1e-05, momentum=0.1, affine=True, track_running_stats=True)\n              )\n            )\n            (stochastic_depth): StochasticDepth(p=0.1375, mode=row)\n          )\n          (1): MBConv(\n            (block): Sequential(\n              (0): Conv2dNormActivation(\n                (0): Conv2d(192, 1152, kernel_size=(1, 1), stride=(1, 1), bias=False)\n                (1): BatchNorm2d(1152, eps=1e-05, momentum=0.1, affine=True, track_running_stats=True)\n                (2): SiLU(inplace=True)\n              )\n              (1): Conv2dNormActivation(\n                (0): Conv2d(1152, 1152, kernel_size=(5, 5), stride=(1, 1), padding=(2, 2), groups=1152, bias=False)\n                (1): BatchNorm2d(1152, eps=1e-05, momentum=0.1, affine=True, track_running_stats=True)\n                (2): SiLU(inplace=True)\n              )\n              (2): SqueezeExcitation(\n                (avgpool): AdaptiveAvgPool2d(output_size=1)\n                (fc1): Conv2d(1152, 48, kernel_size=(1, 1), stride=(1, 1))\n                (fc2): Conv2d(48, 1152, kernel_size=(1, 1), stride=(1, 1))\n                (activation): SiLU(inplace=True)\n                (scale_activation): Sigmoid()\n              )\n              (3): Conv2dNormActivation(\n                (0): Conv2d(1152, 192, kernel_size=(1, 1), stride=(1, 1), bias=False)\n                (1): BatchNorm2d(192, eps=1e-05, momentum=0.1, affine=True, track_running_stats=True)\n              )\n            )\n            (stochastic_depth): StochasticDepth(p=0.15000000000000002, mode=row)\n          )\n          (2): MBConv(\n            (block): Sequential(\n              (0): Conv2dNormActivation(\n                (0): Conv2d(192, 1152, kernel_size=(1, 1), stride=(1, 1), bias=False)\n                (1): BatchNorm2d(1152, eps=1e-05, momentum=0.1, affine=True, track_running_stats=True)\n                (2): SiLU(inplace=True)\n              )\n              (1): Conv2dNormActivation(\n                (0): Conv2d(1152, 1152, kernel_size=(5, 5), stride=(1, 1), padding=(2, 2), groups=1152, bias=False)\n                (1): BatchNorm2d(1152, eps=1e-05, momentum=0.1, affine=True, track_running_stats=True)\n                (2): SiLU(inplace=True)\n              )\n              (2): SqueezeExcitation(\n                (avgpool): AdaptiveAvgPool2d(output_size=1)\n                (fc1): Conv2d(1152, 48, kernel_size=(1, 1), stride=(1, 1))\n                (fc2): Conv2d(48, 1152, kernel_size=(1, 1), stride=(1, 1))\n                (activation): SiLU(inplace=True)\n                (scale_activation): Sigmoid()\n              )\n              (3): Conv2dNormActivation(\n                (0): Conv2d(1152, 192, kernel_size=(1, 1), stride=(1, 1), bias=False)\n                (1): BatchNorm2d(192, eps=1e-05, momentum=0.1, affine=True, track_running_stats=True)\n              )\n            )\n            (stochastic_depth): StochasticDepth(p=0.1625, mode=row)\n          )\n          (3): MBConv(\n            (block): Sequential(\n              (0): Conv2dNormActivation(\n                (0): Conv2d(192, 1152, kernel_size=(1, 1), stride=(1, 1), bias=False)\n                (1): BatchNorm2d(1152, eps=1e-05, momentum=0.1, affine=True, track_running_stats=True)\n                (2): SiLU(inplace=True)\n              )\n              (1): Conv2dNormActivation(\n                (0): Conv2d(1152, 1152, kernel_size=(5, 5), stride=(1, 1), padding=(2, 2), groups=1152, bias=False)\n                (1): BatchNorm2d(1152, eps=1e-05, momentum=0.1, affine=True, track_running_stats=True)\n                (2): SiLU(inplace=True)\n              )\n              (2): SqueezeExcitation(\n                (avgpool): AdaptiveAvgPool2d(output_size=1)\n                (fc1): Conv2d(1152, 48, kernel_size=(1, 1), stride=(1, 1))\n                (fc2): Conv2d(48, 1152, kernel_size=(1, 1), stride=(1, 1))\n                (activation): SiLU(inplace=True)\n                (scale_activation): Sigmoid()\n              )\n              (3): Conv2dNormActivation(\n                (0): Conv2d(1152, 192, kernel_size=(1, 1), stride=(1, 1), bias=False)\n                (1): BatchNorm2d(192, eps=1e-05, momentum=0.1, affine=True, track_running_stats=True)\n              )\n            )\n            (stochastic_depth): StochasticDepth(p=0.17500000000000002, mode=row)\n          )\n        )\n      )\n    )\n    (fpn): FPN(\n      (lateral_convs): ModuleList(\n        (0): Conv2d(24, 256, kernel_size=(1, 1), stride=(1, 1))\n        (1): Conv2d(80, 256, kernel_size=(1, 1), stride=(1, 1))\n        (2): Conv2d(192, 256, kernel_size=(1, 1), stride=(1, 1))\n      )\n      (smooth_convs): ModuleList(\n        (0-2): 3 x Conv2d(256, 256, kernel_size=(3, 3), stride=(1, 1), padding=(1, 1))\n      )\n    )\n    (gap): AdaptiveAvgPool2d(output_size=1)\n    (head): ClassificationHead(\n      (head): Sequential(\n        (0): Linear(in_features=768, out_features=512, bias=True)\n        (1): ReLU(inplace=True)\n        (2): BatchNorm1d(512, eps=1e-05, momentum=0.1, affine=True, track_running_stats=True)\n        (3): Dropout(p=0.3, inplace=False)\n        (4): Linear(in_features=512, out_features=256, bias=True)\n        (5): ReLU(inplace=True)\n        (6): BatchNorm1d(256, eps=1e-05, momentum=0.1, affine=True, track_running_stats=True)\n        (7): Dropout(p=0.3, inplace=False)\n        (8): Linear(in_features=256, out_features=3, bias=True)\n      )\n    )\n  )\n  (change_head): Sequential(\n    (0): Linear(in_features=2304, out_features=256, bias=True)\n    (1): ReLU(inplace=True)\n    (2): BatchNorm1d(256, eps=1e-05, momentum=0.1, affine=True, track_running_stats=True)\n    (3): Dropout(p=0.3, inplace=False)\n    (4): Linear(in_features=256, out_features=64, bias=True)\n    (5): ReLU(inplace=True)\n    (6): Linear(in_features=64, out_features=2, bias=True)\n  )\n  (severity_head): Sequential(\n    (0): Linear(in_features=2304, out_features=128, bias=True)\n    (1): ReLU(inplace=True)\n    (2): BatchNorm1d(128, eps=1e-05, momentum=0.1, affine=True, track_running_stats=True)\n    (3): Dropout(p=0.2, inplace=False)\n    (4): Linear(in_features=128, out_features=5, bias=True)\n  )\n  (alert_type_head): Sequential(\n    (0): Linear(in_features=2304, out_features=128, bias=True)\n    (1): ReLU(inplace=True)\n    (2): Dropout(p=0.2, inplace=False)\n    (3): Linear(in_features=128, out_features=9, bias=True)\n  )\n)",
    "change_acc": 1.0,
    "alerts": 55,
    "latency": {
      "mean_ms": 77.48752300161868,
      "p50_ms": 77.58210005704314,
      "p95_ms": 90.70503997500055,
      "p99_ms": 98.9661799557507,
      "throughput": 12.905303476781809,
      "city_coverage_sec": 774.8752300161868
    },
    "report": {
      "report_id": "RPT-20260404-171711",
…
